models/model_quantized.tflite (tflite, 13400 bytes, 6 tensors)

tfl.pseudo_qconst1 i1 [3, 64]
0	0xcc	-52
1	0x0c	12
2	0x84	-124
3	0x0e	14
4	0x59	89
5	0x8c	-116
6	0x08	8
7	0x0f	15
8	0x3a	58
9	0xbf	-65
10	0xf4	-12
11	0x43	67
12	0x83	-125
13	0x05	5
14	0xb6	-74
15	0x27	39
16	0x75	117
17	0x7f	127
18	0xe0	-32
19	0xa5	-91
20	0x36	54
21	0xad	-83
22	0xc4	-60
23	0x10	16
24	0xa9	-87
25	0x1f	31
26	0xc3	-61
27	0x56	86
28	0x48	72
29	0x56	86
30	0xdd	-35
31	0xac	-84
32	0xb0	-80
33	0xd9	-39
34	0xf9	-7
35	0xb2	-78
36	0x53	83
37	0x21	33
38	0x69	105
39	0x6a	106
40	0xb0	-80
41	0xf3	-13
42	0xd9	-39
43	0xd4	-44
44	0x12	18
45	0xf3	-13
46	0xde	-34
47	0x09	9
48	0xa4	-92
49	0xa9	-87
50	0x70	112
51	0x5e	94
52	0x10	16
53	0xa1	-95
54	0x97	-105
55	0x14	20
56	0xa9	-87
57	0x5d	93
58	0xbe	-66
59	0xc7	-57
60	0x19	25
61	0xb1	-79
62	0x4a	74
63	0xf7	-9
64	0x5a	90
65	0xe0	-32
66	0xeb	-21
67	0xff	-1
68	0xf3	-13
69	0x5a	90
70	0xe0	-32
71	0xb0	-80
72	0xc1	-63
73	0x1e	30
74	0x48	72
75	0xc9	-55
76	0x38	56
77	0x72	114
78	0x4d	77
79	0x98	-104
80	0xf8	-8
81	0x06	6
82	0x5b	91
83	0xe9	-23
84	0xdb	-37
85	0x96	-106
86	0x03	3
87	0x26	38
88	0xb1	-79
89	0x4f	79
90	0x91	-111
91	0x15	21
92	0x91	-111
93	0xa7	-89
94	0xc5	-59
95	0x05	5
96	0x4d	77
97	0x62	98
98	0x2f	47
99	0x33	51
100	0x02	2
101	0x8e	-114
102	0x9a	-102
103	0x50	80
104	0x14	20
105	0x73	115
106	0x30	48
107	0x26	38
108	0xf7	-9
109	0x4b	75
110	0x75	117
111	0x41	65
112	0xe0	-32
113	0x81	-127
114	0x4d	77
115	0xe2	-30
116	0xb8	-72
117	0x1b	27
118	0x6b	107
119	0x93	-109
120	0xed	-19
121	0x02	2
122	0x69	105
123	0xb5	-75
124	0x40	64
125	0x43	67
126	0xbe	-66
127	0x58	88
128	0x2b	43
129	0x3f	63
130	0x1c	28
131	0x11	17
132	0xf5	-11
133	0x69	105
134	0x63	99
135	0xc5	-59
136	0xf1	-15
137	0x33	51
138	0x98	-104
139	0xf6	-10
140	0xf9	-7
141	0xed	-19
142	0x1b	27
143	0x53	83
144	0xdf	-33
145	0xcd	-51
146	0x0d	13
147	0x56	86
148	0x41	65
149	0x3b	59
150	0xc9	-55
151	0x8b	-117
152	0xd2	-46
153	0x97	-105
154	0x08	8
155	0x26	38
156	0x03	3
157	0xd3	-45
158	0x63	99
159	0xd6	-42
160	0x0c	12
161	0xd8	-40
162	0x72	114
163	0xba	-70
164	0xe4	-28
165	0xee	-18
166	0xd4	-44
167	0xbb	-69
168	0x2a	42
169	0xbe	-66
170	0xd2	-46
171	0xa3	-93
172	0x38	56
173	0xe4	-28
174	0xbc	-68
175	0x61	97
176	0x30	48
177	0x00	0
178	0x81	-127
179	0xba	-70
180	0x3f	63
181	0x1f	31
182	0x1c	28
183	0x73	115
184	0x62	98
185	0x9a	-102
186	0x02	2
187	0x43	67
188	0x86	-122
189	0x6b	107
190	0x07	7
191	0xe8	-24

tfl.pseudo_qconst3 i1 [64, 1, 1, 32]
0	0xca	-54
1	0xce	-50
2	0x01	1
3	0xd7	-41
4	0xc8	-56
5	0xbc	-68
6	0x32	50
7	0xdc	-36
8	0xff	-1
9	0x16	22
10	0xf8	-8
11	0x51	81
12	0x38	56
13	0x1b	27
14	0x1c	28
15	0x42	66
16	0x30	48
17	0xf6	-10
18	0x07	7
19	0xb9	-71
20	0x13	19
21	0x8e	-114
22	0x25	37
23	0xb8	-72
24	0xfc	-4
25	0xa0	-96
26	0xab	-85
27	0xff	-1
28	0xcd	-51
29	0xc6	-58
30	0x7f	127
31	0x1e	30
32	0x03	3
33	0x2b	43
34	0x5a	90
35	0xfb	-5
36	0xe0	-32
37	0xf2	-14
38	0xb9	-71
39	0x55	85
40	0x58	88
41	0x7f	127
42	0xb9	-71
43	0x2d	45
44	0xfe	-2
45	0x4b	75
46	0xff	-1
47	0x04	4
48	0x03	3
49	0x28	40
50	0xf8	-8
51	0x6a	106
52	0xe0	-32
53	0xc2	-62
54	0xfc	-4
55	0x4a	74
56	0x48	72
57	0xd3	-45
58	0xfc	-4
59	0x15	21
60	0x41	65
61	0x1e	30
62	0xc0	-64
63	0x1c	28
64	0xd3	-45
65	0x10	16
66	0x19	25
67	0x12	18
68	0x2f	47
69	0xd2	-46
70	0x31	49
71	0xd1	-47
72	0xe6	-26
73	0x76	118
74	0xb3	-77
75	0x4a	74
76	0xfb	-5
77	0x65	101
78	0x02	2
79	0xd4	-44
80	0xf1	-15
81	0xed	-19
82	0x7f	127
83	0xd0	-48
84	0x05	5
85	0xce	-50
86	0xcb	-53
87	0xee	-18
88	0xe4	-28
89	0x5e	94
90	0x2d	45
91	0x03	3
92	0x14	20
93	0x05	5
94	0x4d	77
95	0x3b	59
96	0x3e	62
97	0x13	19
98	0xb3	-77
99	0x01	1
100	0xe4	-28
101	0x49	73
102	0xb0	-80
103	0xd8	-40
104	0x92	-110
105	0xcd	-51
106	0xe5	-27
107	0xb2	-78
108	0x90	-112
109	0x2a	42
110	0x07	7
111	0x0b	11
112	0xab	-85
113	0xaa	-86
114	0xdc	-36
115	0x02	2
116	0xec	-20
117	0xc6	-58
118	0xd5	-43
119	0x2c	44
120	0xfb	-5
121	0x10	16
122	0xe0	-32
123	0xc7	-57
124	0x7f	127
125	0x2a	42
126	0x0d	13
127	0xd8	-40
128	0x4a	74
129	0x19	25
130	0xd5	-43
131	0xd6	-42
132	0xb1	-79
133	0x7f	127
134	0x2e	46
135	0x20	32
136	0x8f	-113
137	0x28	40
138	0x4c	76
139	0xff	-1
140	0x48	72
141	0xba	-70
142	0x53	83
143	0xbf	-65
144	0x46	70
145	0x27	39
146	0x0a	10
147	0x3e	62
148	0xcf	-49
149	0x6a	106
150	0xbd	-67
151	0x79	121
152	0x0c	12
153	0xc3	-61
154	0xc7	-57
155	0x2a	42
156	0x56	86
157	0xc6	-58
158	0x1d	29
159	0x4f	79
160	0x0c	12
161	0x32	50
162	0xe8	-24
163	0xf4	-12
164	0x24	36
165	0xad	-83
166	0x2b	43
167	0xbf	-65
168	0x05	5
169	0x2f	47
170	0xfe	-2
171	0x52	82
172	0xd8	-40
173	0x24	36
174	0xe2	-30
175	0xf6	-10
176	0x42	66
177	0x39	57
178	0x7f	127
179	0xd4	-44
180	0xa1	-95
181	0xc3	-61
182	0xdf	-33
183	0x0f	15
184	0x1a	26
185	0x32	50
186	0x1b	27
187	0x1e	30
188	0xe5	-27
189	0xef	-17
190	0x4b	75
191	0x43	67
192	0x90	-112
193	0x2e	46
194	0x3b	59
195	0x15	21
196	0x0f	15
197	0x1a	26
198	0x3a	58
199	0x56	86
200	0x7f	127
201	0x75	117
202	0xeb	-21
203	0xf5	-11
204	0xbc	-68
205	0x53	83
206	0x2e	46
207	0xff	-1
208	0x7b	123
209	0x04	4
210	0x40	64
211	0x30	48
212	0xb9	-71
213	0xd5	-43
214	0x09	9
215	0x26	38
216	0xfe	-2
217	0x53	83
218	0x9f	-97
219	0x6f	111
220	0xf1	-15
221	0x55	85
222	0x86	-122
223	0x06	6
224	0x1d	29
225	0xbc	-68
226	0xdd	-35
227	0xd1	-47
228	0xc9	-55
229	0xe6	-26
230	0x2f	47
231	0xb0	-80
232	0x05	5
233	0xd4	-44
234	0x14	20
235	0xda	-38
236	0x7f	127
237	0xcd	-51
238	0xac	-84
239	0x24	36
240	0x21	33
241	0xc6	-58
242	0xf1	-15
243	0x33	51
244	0x32	50
245	0x1f	31
246	0xc6	-58
247	0xef	-17
248	0xb0	-80
249	0x01	1
250	0x1c	28
251	0xcd	-51
252	0xf2	-14
253	0xf1	-15
254	0xba	-70
255	0x48	72

tfl.pseudo_qconst5 i1 [1, 3, 3, 32]
0	0x19	25
1	0x71	113
2	0x66	102
3	0xe8	-24
4	0x81	-127
5	0x8e	-114
6	0x55	85
7	0x2f	47
8	0x81	-127
9	0x53	83
10	0xf6	-10
11	0xb6	-74
12	0x53	83
13	0xa4	-92
14	0x30	48
15	0x68	104
16	0xaa	-86
17	0x02	2
18	0x7d	125
19	0xea	-22
20	0xe0	-32
21	0x4a	74
22	0x3b	59
23	0x41	65
24	0xe1	-31
25	0x0d	13
26	0x57	87
27	0x5c	92
28	0x81	-127
29	0x9a	-102
30	0x2c	44
31	0x1f	31
32	0x28	40
33	0x9f	-97
34	0x24	36
35	0x98	-104
36	0xab	-85
37	0xc6	-58
38	0xfe	-2
39	0xf8	-8
40	0x30	48
41	0x81	-127
42	0x27	39
43	0x21	33
44	0x5b	91
45	0xd7	-41
46	0x37	55
47	0x01	1
48	0x3f	63
49	0x36	54
50	0x1e	30
51	0x2d	45
52	0x0f	15
53	0x2b	43
54	0x55	85
55	0x7f	127
56	0x44	68
57	0xd1	-47
58	0x3b	59
59	0xa8	-88
60	0x92	-110
61	0x14	20
62	0x02	2
63	0xd2	-46
64	0x3b	59
65	0xfe	-2
66	0xee	-18
67	0x3c	60
68	0x00	0
69	0x0c	12
70	0xd8	-40
71	0xca	-54
72	0x15	21
73	0xf2	-14
74	0xd9	-39
75	0xf2	-14
76	0x47	71
77	0x69	105
78	0x3b	59
79	0xef	-17
80	0xc1	-63
81	0x54	84
82	0x7f	127
83	0x66	102
84	0x0a	10
85	0x33	51
86	0xc9	-55
87	0x6d	109
88	0xbc	-68
89	0x12	18
90	0xdd	-35
91	0x2d	45
92	0xda	-38
93	0x37	55
94	0x7f	127
95	0x81	-127
96	0xb7	-73
97	0x58	88
98	0x34	52
99	0x85	-123
100	0xfe	-2
101	0x1d	29
102	0x4e	78
103	0x35	53
104	0xed	-19
105	0x24	36
106	0x84	-124
107	0x04	4
108	0x4c	76
109	0xfb	-5
110	0x81	-127
111	0xfc	-4
112	0x81	-127
113	0x2e	46
114	0xf7	-9
115	0x3d	61
116	0x96	-106
117	0x2f	47
118	0x35	53
119	0xbf	-65
120	0x48	72
121	0x0b	11
122	0x02	2
123	0xfb	-5
124	0xca	-54
125	0x0d	13
126	0xea	-22
127	0xc0	-64
128	0x81	-127
129	0x9b	-101
130	0x73	115
131	0xd7	-41
132	0xb2	-78
133	0xb3	-77
134	0x38	56
135	0x81	-127
136	0x11	17
137	0x93	-109
138	0x13	19
139	0x6d	109
140	0x3a	58
141	0xfd	-3
142	0xb4	-76
143	0x7f	127
144	0xb6	-74
145	0x69	105
146	0x09	9
147	0x53	83
148	0xc7	-57
149	0x01	1
150	0x0d	13
151	0x36	54
152	0xde	-34
153	0x0d	13
154	0x73	115
155	0x7f	127
156	0xd0	-48
157	0x4b	75
158	0x61	97
159	0x0d	13
160	0x9f	-97
161	0xfe	-2
162	0x2b	43
163	0x81	-127
164	0x06	6
165	0xf6	-10
166	0x7f	127
167	0x50	80
168	0xf6	-10
169	0x53	83
170	0xfe	-2
171	0x7f	127
172	0x7f	127
173	0x7f	127
174	0xa0	-96
175	0x17	23
176	0x4f	79
177	0x36	54
178	0x0e	14
179	0x42	66
180	0x81	-127
181	0x7f	127
182	0x7f	127
183	0x02	2
184	0xd7	-41
185	0xe0	-32
186	0x7f	127
187	0xcd	-51
188	0xdd	-35
189	0xf6	-10
190	0x5f	95
191	0xe6	-26
192	0x43	67
193	0x54	84
194	0x3d	61
195	0xd2	-46
196	0xf5	-11
197	0x2a	42
198	0xf0	-16
199	0x8b	-117
200	0x97	-105
201	0xc0	-64
202	0x26	38
203	0xb1	-79
204	0x1b	27
205	0xc8	-56
206	0xe8	-24
207	0x03	3
208	0x27	39
209	0x05	5
210	0xff	-1
211	0x7f	127
212	0xb9	-71
213	0x2e	46
214	0x22	34
215	0xdc	-36
216	0x81	-127
217	0xa4	-92
218	0xe7	-25
219	0x4a	74
220	0xc4	-60
221	0x35	53
222	0x50	80
223	0x31	49
224	0xc0	-64
225	0x7f	127
226	0x5d	93
227	0x0c	12
228	0x2a	42
229	0x7f	127
230	0x15	21
231	0xa3	-93
232	0xc9	-55
233	0x95	-107
234	0x81	-127
235	0x3a	58
236	0x31	49
237	0x06	6
238	0xd1	-47
239	0x38	56
240	0xad	-83
241	0x7f	127
242	0x33	51
243	0x1e	30
244	0x00	0
245	0x62	98
246	0xea	-22
247	0x28	40
248	0xce	-50
249	0x1d	29
250	0x1a	26
251	0xd7	-41
252	0x03	3
253	0x62	98
254	0x38	56
255	0x60	96

tfl.pseudo_qconst7 i1 [32, 1, 1, 16]
0	0x05	5
1	0x38	56
2	0xb3	-77
3	0x43	67
4	0x0d	13
5	0x61	97
6	0x31	49
7	0x07	7
8	0xa8	-88
9	0xea	-22
10	0x81	-127
11	0xac	-84
12	0xfe	-2
13	0x0f	15
14	0x13	19
15	0x2f	47
16	0x95	-107
17	0x72	114
18	0xf9	-7
19	0x36	54
20	0x39	57
21	0x5d	93
22	0xe4	-28
23	0x43	67
24	0xa7	-89
25	0x7f	127
26	0xf7	-9
27	0xe6	-26
28	0xfa	-6
29	0xce	-50
30	0xc0	-64
31	0x0f	15
32	0x81	-127
33	0xda	-38
34	0x57	87
35	0x6f	111
36	0xfa	-6
37	0x99	-103
38	0x08	8
39	0x45	69
40	0x3a	58
41	0x13	19
42	0x09	9
43	0xce	-50
44	0xda	-38
45	0x94	-108
46	0x59	89
47	0x2f	47
48	0xaa	-86
49	0x28	40
50	0x6e	110
51	0x8e	-114
52	0x36	54
53	0x15	21
54	0x7f	127
55	0x47	71
56	0x56	86
57	0xd0	-48
58	0x26	38
59	0xf3	-13
60	0x65	101
61	0x4b	75
62	0xb9	-71
63	0xfe	-2
64	0x28	40
65	0x7f	127
66	0x90	-112
67	0xab	-85
68	0xca	-54
69	0x20	32
70	0xf6	-10
71	0xa2	-94
72	0x4b	75
73	0x96	-106
74	0xa3	-93
75	0xf8	-8
76	0xdf	-33
77	0x3c	60
78	0x8f	-113
79	0x92	-110
80	0x42	66
81	0xcf	-49
82	0xf0	-16
83	0x57	87
84	0x5f	95
85	0xd8	-40
86	0x7f	127
87	0xb2	-78
88	0xaf	-81
89	0x3f	63
90	0x5e	94
91	0x46	70
92	0xcc	-52
93	0xb4	-76
94	0x3d	61
95	0xbe	-66
96	0x8a	-118
97	0x61	97
98	0x81	-127
99	0x37	55
100	0xf5	-11
101	0x8a	-118
102	0x7e	126
103	0xef	-17
104	0x90	-112
105	0x1e	30
106	0x6a	106
107	0xda	-38
108	0x73	115
109	0xbd	-67
110	0xd7	-41
111	0x61	97
112	0x12	18
113	0x25	37
114	0xfc	-4
115	0xee	-18
116	0x55	85
117	0x20	32
118	0x79	121
119	0x58	88
120	0xef	-17
121	0x79	121
122	0x7f	127
123	0xa9	-87
124	0xb6	-74
125	0x7c	124
126	0x58	88
127	0xe1	-31
128	0x3c	60
129	0xd3	-45
130	0x05	5
131	0x16	22
132	0xec	-20
133	0xcf	-49
134	0x1a	26
135	0x7f	127
136	0x08	8
137	0x31	49
138	0xad	-83
139	0x17	23
140	0xb0	-80
141	0x18	24
142	0xee	-18
143	0x29	41
144	0x81	-127
145	0x32	50
146	0xb9	-71
147	0x42	66
148	0x19	25
149	0x4f	79
150	0xaa	-86
151	0x8b	-117
152	0xac	-84
153	0x4f	79
154	0xe4	-28
155	0x08	8
156	0xd3	-45
157	0xa0	-96
158	0x97	-105
159	0xf5	-11
160	0x4a	74
161	0x9c	-100
162	0x2e	46
163	0xc9	-55
164	0xf9	-7
165	0xc6	-58
166	0xb0	-80
167	0x7f	127
168	0x5e	94
169	0x42	66
170	0xb6	-74
171	0x67	103
172	0xd9	-39
173	0xb4	-76
174	0x0e	14
175	0xd9	-39
176	0x31	49
177	0xbf	-65
178	0x20	32
179	0x14	20
180	0x8e	-114
181	0xb8	-72
182	0xed	-19
183	0x64	100
184	0xb6	-74
185	0x48	72
186	0x7f	127
187	0x40	64
188	0x9e	-98
189	0x63	99
190	0xa2	-94
191	0xca	-54
192	0x5a	90
193	0xef	-17
194	0x05	5
195	0x9b	-101
196	0x7c	124
197	0x9f	-97
198	0x07	7
199	0x81	-127
200	0xb2	-78
201	0x6d	109
202	0xd7	-41
203	0xfc	-4
204	0xaa	-86
205	0x4c	76
206	0x26	38
207	0xc9	-55
208	0x23	35
209	0x39	57
210	0x14	20
211	0xf9	-7
212	0xac	-84
213	0x7f	127
214	0x1e	30
215	0x63	99
216	0xba	-70
217	0x5d	93
218	0x66	102
219	0xd4	-44
220	0x53	83
221	0x66	102
222	0xfe	-2
223	0xd0	-48
224	0x67	103
225	0x22	34
226	0x7f	127
227	0xbf	-65
228	0x10	16
229	0xa3	-93
230	0x1c	28
231	0x33	51
232	0x4a	74
233	0xbe	-66
234	0x87	-121
235	0xae	-82
236	0x2d	45
237	0xb7	-73
238	0xe7	-25
239	0x57	87
240	0x32	50
241	0x81	-127
242	0x9a	-102
243	0xbf	-65
244	0xf8	-8
245	0x25	37
246	0x64	100
247	0xfd	-3
248	0xcb	-53
249	0x5e	94
250	0x14	20
251	0xef	-17
252	0xe2	-30
253	0x03	3
254	0x22	34
255	0xff	-1

tfl.pseudo_qconst9 i1 [1, 3, 3, 16]
0	0xd7	-41
1	0x06	6
2	0xae	-82
3	0xfe	-2
4	0x2d	45
5	0xcc	-52
6	0x16	22
7	0x63	99
8	0x48	72
9	0x7e	126
10	0xb7	-73
11	0x77	119
12	0xad	-83
13	0xc1	-63
14	0x81	-127
15	0xcd	-51
16	0xd5	-43
17	0xd1	-47
18	0x81	-127
19	0xd2	-46
20	0x6d	109
21	0xbf	-65
22	0x2a	42
23	0x27	39
24	0x1a	26
25	0x7f	127
26	0x38	56
27	0xf8	-8
28	0x41	65
29	0x97	-105
30	0xb6	-74
31	0x08	8
32	0x98	-104
33	0x81	-127
34	0x0f	15
35	0xec	-20
36	0x42	66
37	0x7f	127
38	0xf8	-8
39	0xc2	-62
40	0xd9	-39
41	0x00	0
42	0x7f	127
43	0x7f	127
44	0x7f	127
45	0xf5	-11
46	0x00	0
47	0xc6	-58
48	0xc1	-63
49	0x2a	42
50	0x9f	-97
51	0xb6	-74
52	0xf5	-11
53	0xb0	-80
54	0x7f	127
55	0x3e	62
56	0xe8	-24
57	0xeb	-21
58	0x48	72
59	0xd6	-42
60	0x18	24
61	0xb2	-78
62	0x11	17
63	0x70	112
64	0xb0	-80
65	0x6d	109
66	0xca	-54
67	0xd8	-40
68	0x81	-127
69	0xe6	-26
70	0x68	104
71	0xb6	-74
72	0x34	52
73	0x77	119
74	0x47	71
75	0xb0	-80
76	0x49	73
77	0x1b	27
78	0x54	84
79	0xbf	-65
80	0x81	-127
81	0x9a	-102
82	0x45	69
83	0x81	-127
84	0x0d	13
85	0x1f	31
86	0x31	49
87	0xb0	-80
88	0x0b	11
89	0xf3	-13
90	0xeb	-21
91	0x57	87
92	0xbb	-69
93	0x7f	127
94	0xfd	-3
95	0xa3	-93
96	0x53	83
97	0x3f	63
98	0xe8	-24
99	0xa7	-89
100	0x0f	15
101	0xf7	-9
102	0xf7	-9
103	0x7c	124
104	0x22	34
105	0xea	-22
106	0x49	73
107	0xc3	-61
108	0x50	80
109	0xeb	-21
110	0xe5	-27
111	0x7f	127
112	0xde	-34
113	0x22	34
114	0xe3	-29
115	0xfc	-4
116	0xca	-54
117	0xe5	-27
118	0xb5	-75
119	0x00	0
120	0x7f	127
121	0x28	40
122	0x56	86
123	0x3b	59
124	0x49	73
125	0xd1	-47
126	0xc1	-63
127	0x4c	76
128	0x44	68
129	0xb8	-72
130	0x9b	-101
131	0x27	39
132	0xe8	-24
133	0x1c	28
134	0x30	48
135	0x81	-127
136	0x61	97
137	0x22	34
138	0x5a	90
139	0x27	39
140	0x56	86
141	0x2e	46
142	0xd1	-47
143	0x0e	14

tfl.pseudo_qconst11 i1 [16, 3, 3, 1]
0	0x32	50
1	0xc4	-60
2	0x6a	106
3	0x1c	28
4	0x7f	127
5	0x2b	43
6	0xf8	-8
7	0xbd	-67
8	0xa2	-94
9	0x05	5
10	0x4a	74
11	0x6c	108
12	0xdf	-33
13	0x81	-127
14	0x22	34
15	0xdc	-36
16	0xf3	-13
17	0xd8	-40
18	0x2c	44
19	0x3d	61
20	0x4e	78
21	0x38	56
22	0x81	-127
23	0x9b	-101
24	0xa1	-95
25	0x07	7
26	0x39	57
27	0xf7	-9
28	0x81	-127
29	0x84	-124
30	0x62	98
31	0x31	49
32	0x49	73
33	0xbf	-65
34	0x02	2
35	0x3f	63
36	0x3c	60
37	0x93	-109
38	0x39	57
39	0x38	56
40	0x7f	127
41	0xd5	-43
42	0xc7	-57
43	0x39	57
44	0xe0	-32
45	0x46	70
46	0x21	33
47	0x5a	90
48	0x78	120
49	0x38	56
50	0xe6	-26
51	0x41	65
52	0xa9	-87
53	0x81	-127
54	0xe8	-24
55	0xd4	-44
56	0xa0	-96
57	0x7f	127
58	0x3b	59
59	0x6c	108
60	0xf1	-15
61	0x58	88
62	0xa2	-94
63	0x00	0
64	0x02	2
65	0x7f	127
66	0xdc	-36
67	0x7d	125
68	0x15	21
69	0x4f	79
70	0x55	85
71	0x58	88
72	0x67	103
73	0x3f	63
74	0xb2	-78
75	0xd8	-40
76	0x81	-127
77	0x8c	-116
78	0x8b	-117
79	0xb4	-76
80	0xde	-34
81	0xd7	-41
82	0x54	84
83	0x50	80
84	0x7f	127
85	0xef	-17
86	0xd1	-47
87	0xd6	-42
88	0x0e	14
89	0xfa	-6
90	0xdc	-36
91	0x84	-124
92	0x66	102
93	0x0a	10
94	0x6a	106
95	0x81	-127
96	0xe4	-28
97	0x4a	74
98	0xbb	-69
99	0x5e	94
100	0x58	88
101	0x38	56
102	0x0b	11
103	0xc7	-57
104	0x22	34
105	0x7f	127
106	0xb7	-73
107	0x2d	45
108	0xd9	-39
109	0x1c	28
110	0xb6	-74
111	0xb2	-78
112	0xf9	-7
113	0x57	87
114	0x25	37
115	0x7f	127
116	0x69	105
117	0x81	-127
118	0xe6	-26
119	0x06	6
120	0xb9	-71
121	0xca	-54
122	0xe7	-25
123	0x53	83
124	0xae	-82
125	0xc0	-64
126	0x95	-107
127	0xc4	-60
128	0x94	-108
129	0x32	50
130	0x46	70
131	0x7f	127
132	0x56	86
133	0x48	72
134	0x8d	-115
135	0x0e	14
136	0xe7	-25
137	0x7f	127
138	0xe3	-29
139	0x5a	90
140	0x33	51
141	0x3d	61
142	0xc9	-55
143	0x36	54
