models/model_quantized.tflite (tflite, 13400 bytes, 6 tensors)

tfl.pseudo_qconst1 i1 [3, 64]
000000 2b 1e c3 2d de d1 ed dc 0e af 9a d3 04 39 15 bb
       43 30 -61 45 -34 -47 -19 -36 14 -81 -102 -45 4 57 21 -69
000010 24 40 93 95 ba 39 aa 89 69 cb b5 4b 6d 9f bc 63
       36 64 -109 -107 -70 57 -86 -119 105 -53 -75 75 109 -97 -68 99
000020 b0 c9 c2 23 2f be c7 b6 16 24 5e fc 53 62 a4 db
       -80 -55 -62 35 47 -66 -57 -74 22 36 94 -4 83 98 -92 -37
000030 09 5e 8b 5d 4d 70 09 ab 8b a1 e0 54 17 c2 bb 7f
       9 94 -117 93 77 112 9 -85 -117 -95 -32 84 23 -62 -69 127
000040 29 c2 67 03 bd 26 ee 35 5d 75 1f 3b fe ba d3 6d
       41 -62 103 3 -67 38 -18 53 93 117 31 59 -2 -70 -45 109
000050 81 e3 1a c7 79 01 f4 44 9a 96 6a 0d 2d c8 bb eb
       -127 -29 26 -57 121 1 -12 68 -102 -106 106 13 45 -56 -69 -21
000060 75 e0 08 48 25 f9 58 e9 94 fb c3 8a f1 74 8d bb
       117 -32 8 72 37 -7 88 -23 -108 -5 -61 -118 -15 116 -115 -69
000070 01 46 9b 01 11 ad a2 18 1b 56 6b 49 af 69 39 c1
       1 70 -101 1 17 -83 -94 24 27 86 107 73 -81 105 57 -63
000080 43 c3 69 9f 44 02 c4 3c d1 63 8d 58 f0 e1 2e 2d
       67 -61 105 -97 68 2 -60 60 -47 99 -115 88 -16 -31 46 45
000090 e9 ae bf 1a b2 97 13 e1 d3 2d 26 2b 1e 05 c7 3c
       -23 -82 -65 26 -78 -105 19 -31 -45 45 38 43 30 5 -57 60
0000a0 e2 0b 1c d0 d6 53 d7 ec 42 d0 81 17 43 14 f1 9e
       -30 11 28 -48 -42 83 -41 -20 66 -48 -127 23 67 20 -15 -98
0000b0 6c 1e ec 28 17 37 96 1e d4 05 ef e3 c0 5a 45 c2
       108 30 -20 40 23 55 -106 30 -44 5 -17 -29 -64 90 69 -62

tfl.pseudo_qconst3 i1 [64, 1, 1, 32]
000000 29 ff a0 57 9e 7f 16 6f a4 7b b2 6f 63 f8 26 27
       41 -1 -96 87 -98 127 22 111 -92 123 -78 111 99 -8 38 39
000010 31 7c 7f a3 0c fb 97 41 46 08 0e aa e0 33 ab ca
       49 124 127 -93 12 -5 -105 65 70 8 14 -86 -32 51 -85 -54
000020 8e 2b 7d 9b f2 b9 04 01 a7 1b 02 b1 00 be 7f aa
       -114 43 125 -101 -14 -71 4 1 -89 27 2 -79 0 -66 127 -86
000030 f1 03 b5 a0 17 56 fa fb 05 5d d6 60 f9 de 3a cf
       -15 3 -75 -96 23 86 -6 -5 5 93 -42 96 -7 -34 58 -49
000040 25 cc 5d c6 5d 7f 2f 95 e1 c1 2c 3d d4 23 b4 ae
       37 -52 93 -58 93 127 47 -107 -31 -63 44 61 -44 35 -76 -82
000050 8a 75 3b b2 7b 07 c6 60 ef a4 a2 42 3e b7 99 bd
       -118 117 59 -78 123 7 -58 96 -17 -92 -94 66 62 -73 -103 -67
000060 64 64 69 5d b1 12 f9 9a aa ab 4e 2f 81 c6 31 2a
       100 100 105 93 -79 18 -7 -102 -86 -85 78 47 -127 -58 49 42
000070 ab d8 1e 4c 4f d9 ee c5 a8 e4 21 ad ca 38 b6 0f
       -85 -40 30 76 79 -39 -18 -59 -88 -28 33 -83 -54 56 -74 15
000080 5b d5 22 f8 28 be 9a 57 bc a2 a0 a4 37 e7 21 aa
       91 -43 34 -8 40 -66 -102 87 -68 -94 -96 -92 55 -25 33 -86
000090 41 6b 2d 00 58 d8 09 c0 c2 af 96 7f 52 61 e7 cb
       65 107 45 0 88 -40 9 -64 -62 -81 -106 127 82 97 -25 -53
0000a0 d3 aa 5e ae c6 ee 10 b2 c9 fc 43 08 5f 30 74 a1
       -45 -86 94 -82 -58 -18 16 -78 -55 -4 67 8 95 48 116 -95
0000b0 b3 7f cf ea 66 a1 b7 d0 10 32 51 58 1f cb f6 44
       -77 127 -49 -22 102 -95 -73 -48 16 50 81 88 31 -53 -10 68
0000c0 49 f3 d5 07 da 6a 08 4b e6 09 5f 46 b7 cb dd e2
       73 -13 -43 7 -38 106 8 75 -26 9 95 70 -73 -53 -35 -30
0000d0 de ce 1a 45 21 b4 d3 64 30 10 b6 e6 35 0f 7d 81
       -34 -50 26 69 33 -76 -45 100 48 16 -74 -26 53 15 125 -127
0000e0 a6 ea 9c 64 f9 f2 f7 96 66 c1 41 36 cd b4 53 92
       -90 -22 -100 100 -7 -14 -9 -106 102 -63 65 54 -51 -76 83 -110
0000f0 20 03 2f 2e 72 6a 1a 46 34 22 d6 57 c0 7f 28 0a
       32 3 47 46 114 106 26 70 52 34 -42 87 -64 127 40 10

tfl.pseudo_qconst5 i1 [1, 3, 3, 32]
000000 ef 74 7f a9 0b 95 6c 81 8f 0e 22 a6 28 d9 a8 3b
       -17 116 127 -87 11 -107 108 -127 -113 14 34 -90 40 -39 -88 59
000010 6b ed 54 8c fe d1 19 9c 5d 69 d8 a6 b6 4b b9 e0
       107 -19 84 -116 -2 -47 25 -100 93 105 -40 -90 -74 75 -71 -32
000020 31 06 f2 06 c0 1d 35 0f 75 ca 6a 81 83 31 81 9a
       49 6 -14 6 -64 29 53 15 117 -54 106 -127 -125 49 -127 -102
000030 54 f9 17 0a 3c 12 f4 8d bd 7f 92 eb 7f 60 9d 18
       84 -7 23 10 60 18 -12 -115 -67 127 -110 -21 127 96 -99 24
000040 86 7f 0f 7f b0 7f 77 e7 c2 2d 3e ac 17 ce 92 ff
       -122 127 15 127 -80 127 119 -25 -62 45 62 -84 23 -50 -110 -1
000050 59 bc f6 2f 6e 71 e1 81 75 15 81 15 7d 9b 81 bc
       89 -68 -10 47 110 113 -31 -127 117 21 -127 21 125 -101 -127 -68
000060 ae ab 0b 3c 00 cc a4 47 e4 c0 ed 8e 6d 81 67 7f
       -82 -85 11 60 0 -52 -92 71 -28 -64 -19 -114 109 -127 103 127
000070 81 75 a6 04 99 70 04 1b 81 f6 15 25 b1 a6 8b 4e
       -127 117 -90 4 -103 112 4 27 -127 -10 21 37 -79 -90 -117 78
000080 7f 88 d5 09 94 ad 6f 88 04 7f 9a bf 3c 2c 33 54
       127 -120 -43 9 -108 -83 111 -120 4 127 -102 -65 60 44 51 84
000090 18 48 1b d8 45 d9 7f 3a 5a b4 e1 f9 2f c4 d0 7a
       24 72 27 -40 69 -39 127 58 90 -76 -31 -7 47 -60 -48 122
0000a0 1b cf f7 f6 24 09 81 fd 61 ea 7f d7 81 41 62 b9
       27 -49 -9 -10 36 9 -127 -3 97 -22 127 -41 -127 65 98 -71
0000b0 fd 7f 7f 3e cc bd 2e 35 c5 ed 07 fa 76 7f d0 03
       -3 127 127 62 -52 -67 46 53 -59 -19 7 -6 118 127 -48 3
0000c0 47 13 67 4e 61 01 d5 3b 7c a4 1f f7 94 e4 bf c1
       71 19 103 78 97 1 -43 59 124 -92 31 -9 -108 -28 -65 -63
0000d0 d6 6e 33 44 7f 81 ea b3 57 55 8e 33 b5 8b 22 7f
       -42 110 51 68 127 -127 -22 -77 87 85 -114 51 -75 -117 34 127
0000e0 97 cd 13 fa 81 c9 47 a9 81 57 c5 a1 3e b4 d0 b7
       -105 -51 19 -6 -127 -55 71 -87 -127 87 -59 -95 62 -76 -48 -73
0000f0 aa e8 38 81 dd 78 18 88 02 35 05 13 2c 5b e1 ad
       -86 -24 56 -127 -35 120 24 -120 2 53 5 19 44 91 -31 -83

tfl.pseudo_qconst7 i1 [32, 1, 1, 16]
000000 7d 31 56 4c 9b fc 47 9f d7 e3 6b e6 7f 60 79 2f
       125 49 86 76 -101 -4 71 -97 -41 -29 107 -26 127 96 121 47
000010 d3 40 5d 10 af b4 f3 6c 05 08 7f 3c a6 96 06 e5
       -45 64 93 16 -81 -76 -13 108 5 8 127 60 -90 -106 6 -27
000020 ca 9a 81 cc 83 26 98 c1 0e d9 f0 66 16 f7 ff b6
       -54 -102 -127 -52 -125 38 -104 -63 14 -39 -16 102 22 -9 -1 -74
000030 28 46 dd db 60 ea 7f 09 dd 20 f7 a7 87 de d6 f3
       40 70 -35 -37 96 -22 127 9 -35 32 -9 -89 -121 -34 -42 -13
000040 d1 51 99 62 1e d5 10 7f 67 0e c0 25 e5 5c fc 88
       -47 81 -103 98 30 -43 16 127 103 14 -64 37 -27 92 -4 -120
000050 21 c5 97 81 91 71 10 97 4f e3 93 f3 54 b4 cc 48
       33 -59 -105 -127 -111 113 16 -105 79 -29 -109 -13 84 -76 -52 72
000060 66 83 93 a0 76 fd ab 11 98 40 40 41 fa c6 81 e2
       102 -125 -109 -96 118 -3 -85 17 -104 64 64 65 -6 -58 -127 -30
000070 db 28 0f 09 38 c2 08 16 d8 28 50 49 e7 7f 12 76
       -37 40 15 9 56 -62 8 22 -40 40 80 73 -25 127 18 118
000080 88 f8 9a 33 3e 55 89 60 19 9f 34 ea fb 7f fc 33
       -120 -8 -102 51 62 85 -119 96 25 -97 52 -22 -5 127 -4 51
000090 b6 de ec 7b 0b 86 7f 8b 9a 76 90 91 0a 1c 0e a5
       -74 -34 -20 123 11 -122 127 -117 -102 118 -112 -111 10 28 14 -91
0000a0 46 e7 7f e6 57 71 3f a8 05 f0 15 7f 68 16 5c d4
       70 -25 127 -26 87 113 63 -88 5 -16 21 127 104 22 92 -44
0000b0 66 59 68 b7 87 b5 f3 36 76 7d 5e a7 46 7d 7f 65
       102 89 104 -73 -121 -75 -13 54 118 125 94 -89 70 125 127 101
0000c0 23 d9 a2 f6 da 45 ac 7f ba c2 31 4b 99 46 d2 95
       35 -39 -94 -10 -38 69 -84 127 -70 -62 49 75 -103 70 -46 -107
0000d0 81 1f 2e 6f bf d7 53 41 d4 86 75 ac f0 e5 11 ae
       -127 31 46 111 -65 -41 83 65 -44 -122 117 -84 -16 -27 17 -82
0000e0 ec 92 34 6c 0e c9 67 e9 bb 82 7f 8f 31 8d cf 66
       -20 -110 52 108 14 -55 103 -23 -69 -126 127 -113 49 -115 -49 102
0000f0 6a 64 69 3f 67 b5 ae 4a 81 f7 e0 cf 62 61 50 75
       106 100 105 63 103 -75 -82 74 -127 -9 -32 -49 98 97 80 117

tfl.pseudo_qconst9 i1 [1, 3, 3, 16]
000000 00 5b fd f5 a2 e5 0f 55 88 32 d2 ff 15 72 d0 ba
       0 91 -3 -11 -94 -27 15 85 -120 50 -46 -1 21 114 -48 -70
000010 d6 fb de 31 81 29 99 8f 56 a5 d4 07 08 c5 2b 91
       -42 -5 -34 49 -127 41 -103 -113 86 -91 -44 7 8 -59 43 -111
000020 24 6f 11 c6 9c 6c 1b 8f ce 0b 7f 2b 84 a7 a1 12
       36 111 17 -58 -100 108 27 -113 -50 11 127 43 -124 -89 -95 18
000030 7e a3 f7 bf b7 66 5b be 12 e5 7a 7f e7 c9 0e 6d
       126 -93 -9 -65 -73 102 91 -66 18 -27 122 127 -25 -55 14 109
000040 ff 81 9e f1 6a bc 7f 4c 94 b4 01 1e 83 38 13 7f
       -1 -127 -98 -15 106 -68 127 76 -108 -76 1 30 -125 56 19 127
000050 c2 37 81 9c 18 81 a6 f6 08 bb 7c f8 81 7f 07 86
       -62 55 -127 -100 24 -127 -90 -10 8 -69 124 -8 -127 127 7 -122
000060 81 dc 0a 79 91 64 aa 81 0d 06 4c 91 5d e1 19 de
       -127 -36 10 121 -111 100 -86 -127 13 6 76 -111 93 -31 25 -34
000070 67 81 c3 7f 37 ed fb 6c 7f 7f b0 88 f5 d6 81 4b
       103 -127 -61 127 55 -19 -5 108 127 127 -80 -120 -11 -42 -127 75
000080 2f 4f a5 9f 53 cf 88 b2 b9 2d c9 41 49 87 39 ef
       47 79 -91 -97 83 -49 -120 -78 -71 45 -55 65 73 -121 57 -17

tfl.pseudo_qconst11 i1 [16, 3, 3, 1]
000000 e6 8c e3 10 cb 61 ba 23 7f 5b 7f 06 b3 f4 a6 11
       -26 -116 -29 16 -53 97 -70 35 127 91 127 6 -77 -12 -90 17
000010 9b e5 5b 81 a8 f3 bb e7 9c e6 38 f6 c0 2f fe 13
       -101 -27 91 -127 -88 -13 -69 -25 -100 -26 56 -10 -64 47 -2 19
000020 51 95 7f c7 12 81 9a aa 16 77 22 ac ef 22 4c 7f
       81 -107 127 -57 18 -127 -102 -86 22 119 34 -84 -17 34 76 127
000030 89 f7 d8 67 a1 0e 3a 08 1d 9d 42 37 29 81 31 50
       -119 -9 -40 103 -95 14 58 8 29 -99 66 55 41 -127 49 80
000040 a0 45 a5 ed d4 81 cc fe 4a 84 c4 10 f8 7f e5 fe
       -96 69 -91 -19 -44 -127 -52 -2 74 -124 -60 16 -8 127 -27 -2
000050 2c d1 53 bd 17 1d 7f a0 d8 2a 2a a6 85 e5 0e 0f
       44 -47 83 -67 23 29 127 -96 -40 42 42 -90 -123 -27 14 15
000060 01 ff 81 7f be d8 cb 3d 62 df f3 d7 fc 81 00 59
       1 -1 -127 127 -66 -40 -53 61 98 -33 -13 -41 -4 -127 0 89
000070 01 6a 20 29 09 77 da 7f e5 d3 ee b0 67 de 56 f7
       1 106 32 41 9 119 -38 127 -27 -45 -18 -80 103 -34 86 -9
000080 7f 40 ea b2 0b 16 70 7f 2b 24 b0 9c ac 05 b2 ce
       127 64 -22 -78 11 22 112 127 43 36 -80 -100 -84 5 -78 -50
