models/model_quantized.tflite (tflite, 13400 bytes, 6 tensors)

tfl.pseudo_qconst1 i1 [3, 64]
00000000: a337 6aa4 c821 d281 22e5 38af d2eb 47b2
00000010: 94fd 8d13 1712 fda0 de8e d066 4009 64d9
00000020: 14af f4ea 8f0d 37b6 42dc 5013 143d d7ab
00000030: 489e 36aa 4a04 830a 5420 e6ee 4199 1828
00000040: 1f78 e5b7 2555 6b02 ee28 bd32 08f6 b345
00000050: 0026 5f08 306b b963 ef29 4408 dca2 fca7
00000060: 7fb9 3471 71bf 2b29 cfc3 5fb8 c7fd 46f7
00000070: 9ac9 bc71 debc c7c2 d870 234a d908 1218
00000080: bebe fe64 8cb3 2700 c07f fbe7 7550 05e1
00000090: 7461 a1a6 ce9f ecdb 3edc 9e18 6f29 f213
000000a0: 1567 99fb 0145 c6ea ab3e c443 230c b171
000000b0: 4f4a f4b4 7025 00fd 6cc1 8b57 b521 f65b
-93 55 106 -92 -56 33 -46 -127
34 -27 56 -81 -46 -21 71 -78
-108 -3 -115 19 23 18 -3 -96
-34 -114 -48 102 64 9 100 -39
20 -81 -12 -22 -113 13 55 -74
66 -36 80 19 20 61 -41 -85
72 -98 54 -86 74 4 -125 10
84 32 -26 -18 65 -103 24 40
31 120 -27 -73 37 85 107 2
-18 40 -67 50 8 -10 -77 69
0 38 95 8 48 107 -71 99
-17 41 68 8 -36 -94 -4 -89
127 -71 52 113 113 -65 43 41
-49 -61 95 -72 -57 -3 70 -9
-102 -55 -68 113 -34 -68 -57 -62
-40 112 35 74 -39 8 18 24
-66 -66 -2 100 -116 -77 39 0
-64 127 -5 -25 117 80 5 -31
116 97 -95 -90 -50 -97 -20 -37
62 -36 -98 24 111 41 -14 19
21 103 -103 -5 1 69 -58 -22
-85 62 -60 67 35 12 -79 113
79 74 -12 -76 112 37 0 -3
108 -63 -117 87 -75 33 -10 91

tfl.pseudo_qconst3 i1 [64, 1, 1, 32]
00000000: d056 54da e705 f39b d341 23d6 32d4 2405
00000010: e969 eb9e ed11 ac34 63e7 3781 2711 a9f4
00000020: 2145 2402 4b16 c9d0 b11f 371d f940 ffb8
00000030: 5dfd 30b4 dd26 c6f3 f1f7 4ac8 7f4c 25d6
00000040: 7bf2 2984 29ff 7ff1 f2e4 f05c d603 5304
00000050: db4e 5cd9 be46 78e1 dbbc e51c bece 69b4
00000060: 28e2 3e58 f055 3af3 2eb6 43ba 2c2e de43
00000070: ecc8 c323 7f0f 0e3a ef41 05d3 120a 2906
00000080: 9333 c0ae 7fb2 e3d6 954c d72b b329 00fd
00000090: 255f bc48 c57d d4d0 5ff8 78de 4796 2d54
000000a0: fa50 c1f3 4bcc d6ea ba22 080c 2d38 c0d1
000000b0: e92e d8c7 eec1 da22 0c09 efd9 7fe5 2429
000000c0: ae1c 4a36 3814 acc2 2748 f8e7 f22d d126
000000d0: e825 ec94 daee 8c1e 7f6b 4a04 32a7 cb00
000000e0: c404 2b51 185a b0e2 21ea 58e8 69d8 f7d9
000000f0: be3c 0e00 3141 b427 3765 6281 1efb eee5
-48 86 84 -38 -25 5 -13 -101
-45 65 35 -42 50 -44 36 5
-23 105 -21 -98 -19 17 -84 52
99 -25 55 -127 39 17 -87 -12
33 69 36 2 75 22 -55 -48
-79 31 55 29 -7 64 -1 -72
93 -3 48 -76 -35 38 -58 -13
-15 -9 74 -56 127 76 37 -42
123 -14 41 -124 41 -1 127 -15
-14 -28 -16 92 -42 3 83 4
-37 78 92 -39 -66 70 120 -31
-37 -68 -27 28 -66 -50 105 -76
40 -30 62 88 -16 85 58 -13
46 -74 67 -70 44 46 -34 67
-20 -56 -61 35 127 15 14 58
-17 65 5 -45 18 10 41 6
-109 51 -64 -82 127 -78 -29 -42
-107 76 -41 43 -77 41 0 -3
37 95 -68 72 -59 125 -44 -48
95 -8 120 -34 71 -106 45 84
-6 80 -63 -13 75 -52 -42 -22
-70 34 8 12 45 56 -64 -47
-23 46 -40 -57 -18 -63 -38 34
12 9 -17 -39 127 -27 36 41
-82 28 74 54 56 20 -84 -62
39 72 -8 -25 -14 45 -47 38
-24 37 -20 -108 -38 -18 -116 30
127 107 74 4 50 -89 -53 0
-60 4 43 81 24 90 -80 -30
33 -22 88 -24 105 -40 -9 -39
-66 60 14 0 49 65 -76 39
55 101 98 -127 30 -5 -18 -27

tfl.pseudo_qconst5 i1 [1, 3, 3, 32]
00000000: 04a9 81d8 69dc 8159 ad81 41d6 39fb 67cd
00000010: 460d fc0d 634c 7f81 03ef f53f 480c bb09
00000020: 1081 c1bf 7358 bd6b 0838 a881 fdeb a818
00000030: 5f7f 1c09 1f2a e64d 48f2 1b29 791e e371
00000040: 050c 4a0f 7f16 a57f 30cf fac0 fbf5 299f
00000050: f9ed 22e1 7f81 00f6 7fed 7fec 04ec e0c6
00000060: 6906 aad3 90a8 d167 7bb8 5136 ff81 2e69
00000070: fcef 34b3 579d 9ce1 2851 44e2 49eb a1bc
00000080: 05e4 e8d9 d5f0 f55e f8e2 a84e 1da4 f97f
00000090: 7f78 1b81 1c9a 910f 650a 7b14 622c 9b35
000000a0: 5da4 f44d 0581 f1d9 6224 81e9 8169 7f57
000000b0: 224b 4d8f 78c8 a31f 498c 6527 7ffe 8175
000000c0: 95a6 fff4 0cf4 0bd2 45e2 02f5 f8fe 2c21
000000d0: d81f 81a2 0d55 fbda ec29 f181 ce4d e5ed
000000e0: d4b5 9581 eae3 df03 79b6 fb50 e304 8234
000000f0: 002f 8e8f 3693 00d9 080e 1e8b 5653 1747
4 -87 -127 -40 105 -36 -127 89
-83 -127 65 -42 57 -5 103 -51
70 13 -4 13 99 76 127 -127
3 -17 -11 63 72 12 -69 9
16 -127 -63 -65 115 88 -67 107
8 56 -88 -127 -3 -21 -88 24
95 127 28 9 31 42 -26 77
72 -14 27 41 121 30 -29 113
5 12 74 15 127 22 -91 127
48 -49 -6 -64 -5 -11 41 -97
-7 -19 34 -31 127 -127 0 -10
127 -19 127 -20 4 -20 -32 -58
105 6 -86 -45 -112 -88 -47 103
123 -72 81 54 -1 -127 46 105
-4 -17 52 -77 87 -99 -100 -31
40 81 68 -30 73 -21 -95 -68
5 -28 -24 -39 -43 -16 -11 94
-8 -30 -88 78 29 -92 -7 127
127 120 27 -127 28 -102 -111 15
101 10 123 20 98 44 -101 53
93 -92 -12 77 5 -127 -15 -39
98 36 -127 -23 -127 105 127 87
34 75 77 -113 120 -56 -93 31
73 -116 101 39 127 -2 -127 117
-107 -90 -1 -12 12 -12 11 -46
69 -30 2 -11 -8 -2 44 33
-40 31 -127 -94 13 85 -5 -38
-20 41 -15 -127 -50 77 -27 -19
-44 -75 -107 -127 -22 -29 -33 3
121 -74 -5 80 -29 4 -126 52
0 47 -114 -113 54 -109 0 -39
8 14 30 -117 86 83 23 71

tfl.pseudo_qconst7 i1 [32, 1, 1, 16]
00000000: 0916 5cc6 4fb8 7f6b dbef 42f2 e81d 42ee
00000010: ef29 06b8 09e0 81c2 058d 0c65 2892 b8b4
00000020: 0042 e104 1f81 2ca8 07b9 2b3d d9cc 162f
00000030: b904 f553 2fb6 430f 7f5e 0ae1 2235 c5ca
00000040: 4b35 c9fd 589c 46e7 819a 16f9 4b6b 4d23
00000050: ebe5 cac7 0bb4 7f17 550b d9ef 4de5 1f32
00000060: 94dd daa6 d565 e347 56d1 ffa8 5bfb 797f
00000070: 9769 d298 d6b6 c30a 490d 6735 ce81 fa2b
00000080: fbb9 0cd9 3b70 fc18 c2ea 357f 488d 0f51
00000090: 2b20 59cf 3d81 47fa b54a 7f73 4d45 84bb
000000a0: dd43 2523 755d 1124 7fe9 dfc8 2ee0 02cb
000000b0: 0883 f21a c7e8 7fb0 9624 6469 0ae6 0aac
000000c0: 10db 4d27 6447 1627 7fb6 bf20 1f1b 483a
000000d0: 157f 4f66 b93d e5ec ef43 0049 e7da 0db0
000000e0: 9e2f d17c 5338 7fcc 290a 1895 5fdf b80b
000000f0: a2fa b2b6 81a0 7d94 250c afc8 3d06 ab1e
9 22 92 -58 79 -72 127 107
-37 -17 66 -14 -24 29 66 -18
-17 41 6 -72 9 -32 -127 -62
5 -115 12 101 40 -110 -72 -76
0 66 -31 4 31 -127 44 -88
7 -71 43 61 -39 -52 22 47
-71 4 -11 83 47 -74 67 15
127 94 10 -31 34 53 -59 -54
75 53 -55 -3 88 -100 70 -25
-127 -102 22 -7 75 107 77 35
-21 -27 -54 -57 11 -76 127 23
85 11 -39 -17 77 -27 31 50
-108 -35 -38 -90 -43 101 -29 71
86 -47 -1 -88 91 -5 121 127
-105 105 -46 -104 -42 -74 -61 10
73 13 103 53 -50 -127 -6 43
-5 -71 12 -39 59 112 -4 24
-62 -22 53 127 72 -115 15 81
43 32 89 -49 61 -127 71 -6
-75 74 127 115 77 69 -124 -69
-35 67 37 35 117 93 17 36
127 -23 -33 -56 46 -32 2 -53
8 -125 -14 26 -57 -24 127 -80
-106 36 100 105 10 -26 10 -84
16 -37 77 39 100 71 22 39
127 -74 -65 32 31 27 72 58
21 127 79 102 -71 61 -27 -20
-17 67 0 73 -25 -38 13 -80
-98 47 -47 124 83 56 127 -52
41 10 24 -107 95 -33 -72 11
-94 -6 -78 -74 -127 -96 125 -108
37 12 -81 -56 61 6 -85 30

tfl.pseudo_qconst9 i1 [1, 3, 3, 16]
00000000: c958 7fdc f25f e743 55c7 702a 632a c9fe
00000010: ec56 4e67 04df 695d 7f52 7f6c 7fd0 e7e0
00000020: 4df4 f8fa c1e4 5109 332a 27dc f61b 9ff3
00000030: 48c8 a65c 96b5 4024 1c13 2945 42e7 25cc
00000040: 1657 a29c 78ed b981 4e54 f9d2 3a52 fb9f
00000050: 6e9f fc87 d231 66fa dc7f 1b15 0833 6881
00000060: 4356 82b5 4199 8125 2009 0c7f fd0d 812d
00000070: 7f7f 2281 10bf fb2e 30bb 0fee 2270 d728
00000080: 725d cbe3 817f 7aa4 ecdb db8e 6e7f 15c8
-55 88 127 -36 -14 95 -25 67
85 -57 112 42 99 42 -55 -2
-20 86 78 103 4 -33 105 93
127 82 127 108 127 -48 -25 -32
77 -12 -8 -6 -63 -28 81 9
51 42 39 -36 -10 27 -97 -13
72 -56 -90 92 -106 -75 64 36
28 19 41 69 66 -25 37 -52
22 87 -94 -100 120 -19 -71 -127
78 84 -7 -46 58 82 -5 -97
110 -97 -4 -121 -46 49 102 -6
-36 127 27 21 8 51 104 -127
67 86 -126 -75 65 -103 -127 37
32 9 12 127 -3 13 -127 45
127 127 34 -127 16 -65 -5 46
48 -69 15 -18 34 112 -41 40
114 93 -53 -29 -127 127 122 -92
-20 -37 -37 -114 110 127 21 -56

tfl.pseudo_qconst11 i1 [16, 3, 3, 1]
00000000: 1b71 4381 a21e d6b3 4899 8d19 367f 2e2d
00000010: bb49 9081 9c3f d2cb 1f96 2ed2 df50 7f0c
00000020: ff3d 3623 ec7f 25bc 95e6 ccf8 e2fd 35f1
00000030: 4b1c 475d 7f45 7f56 4fc8 51d2 d0f0 1eaa
00000040: 85c4 ae5d b57f 4c18 8313 2ef2 dd2f af0a
00000050: 7fe5 3f7f 2de0 9aff ee1a 4481 3849 d900
00000060: 3f63 b62e 283c 107c df7f 0e08 813c 5df5
00000070: 5087 18bc d209 7f70 a090 bd1d 4fbe d926
00000080: a55c cac8 5b81 e605 cb99 d77f f1a7 2a45
27 113 67 -127 -94 30 -42 -77
72 -103 -115 25 54 127 46 45
-69 73 -112 -127 -100 63 -46 -53
31 -106 46 -46 -33 80 127 12
-1 61 54 35 -20 127 37 -68
-107 -26 -52 -8 -30 -3 53 -15
75 28 71 93 127 69 127 86
79 -56 81 -46 -48 -16 30 -86
-123 -60 -82 93 -75 127 76 24
-125 19 46 -14 -35 47 -81 10
127 -27 63 127 45 -32 -102 -1
-18 26 68 -127 56 73 -39 0
63 99 -74 46 40 60 16 124
-33 127 14 8 -127 60 93 -11
80 -121 24 -68 -46 9 127 112
-96 -112 -67 29 79 -66 -39 38
-91 92 -54 -56 91 -127 -26 5
-53 -103 -41 127 -15 -89 42 69
